…
('Input image shape:', (1, 152, 220, 1))
c-700-02.jpg
('Input image shape:', (1, 152, 220, 1))
c-700-15.jpg
('Input image shape:', (1, 152, 220, 1))
c-700-22.jpg
('Input image shape:', (1, 152, 220, 1))
c-700-10.jpg
('Input image shape:', (1, 152, 220, 1))
c-700-16.jpg
('Input image shape:', (1, 152, 220, 1))
c-700-07.jpg
('Input image shape:', (1, 152, 220, 1))
(1, 16420, 152, 220, 1)
(16420, 152, 220, 1)
_________________________________________________________________
Layer (type)                 Output Shape              Param #   
=================================================================
conv2d_1 (Conv2D)            (None, 76, 110, 4)        104       
_________________________________________________________________
leaky_re_lu_1 (LeakyReLU)    (None, 76, 110, 4)        0         
_________________________________________________________________
dropout_1 (Dropout)          (None, 76, 110, 4)        0         
_________________________________________________________________
conv2d_2 (Conv2D)            (None, 38, 55, 8)         808       
_________________________________________________________________
leaky_re_lu_2 (LeakyReLU)    (None, 38, 55, 8)         0         
_________________________________________________________________
dropout_2 (Dropout)          (None, 38, 55, 8)         0         
_________________________________________________________________
conv2d_3 (Conv2D)            (None, 19, 28, 16)        3216      
_________________________________________________________________
leaky_re_lu_3 (LeakyReLU)    (None, 19, 28, 16)        0         
_________________________________________________________________
dropout_3 (Dropout)          (None, 19, 28, 16)        0         
_________________________________________________________________
conv2d_4 (Conv2D)            (None, 19, 28, 32)        12832     
_________________________________________________________________
leaky_re_lu_4 (LeakyReLU)    (None, 19, 28, 32)        0         
_________________________________________________________________
dropout_4 (Dropout)          (None, 19, 28, 32)        0         
_________________________________________________________________
flatten_1 (Flatten)          (None, 17024)             0         
_________________________________________________________________
dense_1 (Dense)              (None, 1)                 17025     
_________________________________________________________________
activation_1 (Activation)    (None, 1)                 0         
=================================================================
Total params: 33,985
Trainable params: 33,985
Non-trainable params: 0
_________________________________________________________________




discriminator_model::
_________________________________________________________________
Layer (type)                 Output Shape              Param #   
=================================================================
sequential_2 (Sequential)    (None, 1)                 33985     
=================================================================
Total params: 33,985
Trainable params: 33,985
Non-trainable params: 0
_________________________________________________________________
_________________________________________________________________
Layer (type)                 Output Shape              Param #   
=================================================================
dense_2 (Dense)              (None, 33440)             3377440   
_________________________________________________________________
batch_normalization_1 (Batch (None, 33440)             133760    
_________________________________________________________________
activation_2 (Activation)    (None, 33440)             0         
_________________________________________________________________
reshape_1 (Reshape)          (None, 38, 55, 16)        0         
_________________________________________________________________
dropout_5 (Dropout)          (None, 38, 55, 16)        0         
_________________________________________________________________
up_sampling2d_1 (UpSampling2 (None, 76, 110, 16)       0         
_________________________________________________________________
conv2d_transpose_1 (Conv2DTr (None, 76, 110, 8)        3208      
_________________________________________________________________
batch_normalization_2 (Batch (None, 76, 110, 8)        32        
_________________________________________________________________
activation_3 (Activation)    (None, 76, 110, 8)        0         
_________________________________________________________________
up_sampling2d_2 (UpSampling2 (None, 152, 220, 8)       0         
_________________________________________________________________
conv2d_transpose_2 (Conv2DTr (None, 152, 220, 4)       804       
_________________________________________________________________
batch_normalization_3 (Batch (None, 152, 220, 4)       16        
_________________________________________________________________
activation_4 (Activation)    (None, 152, 220, 4)       0         
_________________________________________________________________
conv2d_transpose_3 (Conv2DTr (None, 152, 220, 2)       202       
_________________________________________________________________
batch_normalization_4 (Batch (None, 152, 220, 2)       8         
_________________________________________________________________
activation_5 (Activation)    (None, 152, 220, 2)       0         
_________________________________________________________________
conv2d_transpose_4 (Conv2DTr (None, 152, 220, 1)       51        
_________________________________________________________________
activation_6 (Activation)    (None, 152, 220, 1)       0         
=================================================================
Total params: 3,515,521
Trainable params: 3,448,613
Non-trainable params: 66,908
_________________________________________________________________
_________________________________________________________________
Layer (type)                 Output Shape              Param #   
=================================================================
sequential_4 (Sequential)    (None, 152, 220, 1)       3515521   
_________________________________________________________________
sequential_2 (Sequential)    (None, 1)                 33985     
=================================================================
Total params: 3,549,506
Trainable params: 3,482,598
Non-trainable params: 66,908
_________________________________________________________________
0: [D loss: 1.493147, acc: 0.614000]  [A loss: 0.669031, acc: 0.722000]
1: [D loss: 0.415823, acc: 0.501000]  [A loss: 0.646839, acc: 0.862000]
2: [D loss: 0.410150, acc: 0.503000]  [A loss: 0.644858, acc: 0.854000]
…
